checkpoint.pth (torch_old, 81658 bytes, 27 tensors)

state_val_net.0.0.weight f4 [128, 37]
-0.34552297 0.092710756 0.004600236 0.30249187 -0.118568085 0.018126575 -0.10125054 -0.1201356
0.33827928 0.37493518 -0.14897238 -0.17397091 0.018348254 -0.007363196 0.53590107 -0.23155859
0.042546697 0.05732682 -0.101917975 0.117501825 -0.12808646 0.034182705 0.32258758 0.28551546
0.25280026 0.07365769 0.21672787 0.044266984 0.22543626 0.32515025 0.092695326 -0.03702701
-0.0487548 -0.11361192 -0.21292 0.0021970116 0.098731466 0.23221514 0.074658945 0.11342987
-0.17691037 -0.008718306 0.09063445 -0.029954545 0.18446621 0.11155441 0.31545588 0.4552327
-0.34615806 0.13924813 0.009147466 -0.8916721 -0.0030025516 -0.006823123 -0.13830236 0.0281491
0.07053982 0.014116268 0.06543753 -0.035427786 -0.16248366 -0.30659443 0.078578636 -0.17576115
-0.25016573 -0.062612236 -0.44895795 -0.0945411 -0.05072868 0.16835475 0.1718668 0.27355543
0.098315455 0.008016958 -0.30290347 0.0015668801 -0.062685415 0.14727998 -0.29991645 0.041822087
-0.04182622 -0.2190778 0.23575588 -0.46869168 0.069586985 0.23344707 -0.17770706 -0.11078309
-0.094990276 -0.02649271 0.12793152 0.21153241 -0.29062343 0.10238813 0.17709807 -0.18935451
-0.21418503 -0.3947549 0.11503383 0.039120343 0.045031752 -0.28870052 -0.046469864 -0.030433882
0.28613737 0.06919851 -0.13028185 0.10971893 -0.24635378 -0.19255611 0.05140715 -0.18798262
-0.20972301 0.21266311 0.3281419 0.6212015 0.011863356 0.061537772 0.08390819 0.30506337
0.19825922 0.086254284 -0.09053697 0.13495599 0.03644845 0.00889368 0.29167122 0.34768936
0.3939838 -0.32239774 0.30652043 0.33609423 -0.104452446 0.028280905 0.028467378 -0.17300043
0.06577016 0.3430509 0.077241406 -0.3948035 -0.15324953 0.15262614 -0.040395282 -0.23033845
0.00019427016 -0.64117086 0.12461135 -0.048284937 -0.08400781 -0.049140055 0.16645432 0.08999497
-0.37508875 -0.27185497 -0.053451676 0.23899415 0.18860272 -0.2755244 -0.09237281 -0.2108406
0.08318001 0.052327186 -0.14644739 0.018043246 -0.0787001 0.035153877 -0.041387934 0.119472876
0.21669106 0.040897842 -0.10943322 -0.08164821 -0.26635277 0.12538116 -0.27974862 0.22240613
-0.10440749 -0.26934335 0.10070969 0.1362579 0.26836398 0.11173228 -0.12777673 -0.099098586
-0.01250197 0.0011710263 0.08991759 -0.11893483 -0.08027718 -0.046056475 -0.020586614 -0.17051043
0.23714225 -0.058725484 -0.2588407 0.07657792 -0.17216986 0.26933432 -0.24450314 -0.14185166
-0.20896825 -0.1411869 -0.13868512 0.0049685296 0.23832461 0.17695706 0.010690848 0.39194816
0.051412903 -0.26217616 0.2505329 -0.037394807 0.32651624 -0.2277694 -0.46594802 0.25259396
-0.029853398 0.3978845 -0.49594152 -0.08059421 -0.27651182 0.12694518 0.11079087 0.077448905
-0.08778875 -0.05908228 0.07501203 -0.0018632121 0.21695368 0.21233948 0.021382833 0.21337444
-0.04565912 -0.14743155 -0.09847042 0.16025047 0.14981438 -0.17354086 0.05600698 -0.000682873
0.19159438 0.2309783 -0.2290784 -0.0039652307 0.08231137 0.006083175 0.18208376 -0.21056446
-0.4859749 -0.17125964 0.046484288 0.56817824 -0.03914973 -0.019782998 -0.08601557 0.10178003
00000000: 63e8 b0be 23df bd3d 94bd 963b 37e0 9a3e
00000010: d3d3 f2bd 2f7e 943c 715c cfbd a709 f6bd
00000020: f132 ad3e 81f7 bf3e 378c 18be 6e25 32be
00000030: 144f 963c f746 f1bb d030 093f b21d 6dbe
00000040: 7245 2e3d 87cf 6a3d 5fba d0bd cca4 f03d
00000050: 1929 03be 2a03 0c3d 332a a53e 152f 923e
00000060: 096f 813e d8d9 963d e9ed 5d3e 4c51 353d
00000070: c3d8 663e 187a a63e 0cd7 bd3d a2a9 17bd
00000080: 1db3 47bd 5ead e8bd b307 5abe bdfb 0f3b
00000090: b933 ca3d cec9 6d3e cae6 983d eb4d e83d
000000a0: fe27 35be 3ad7 0ebc 8e9e b93d 3c63 f5bc
000000b0: b6e4 3c3e a376 e43d 6f83 a13e 4314 e93e
000000c0: a13b b1be 1097 0e3e 41df 153c 9f44 64bf
000000d0: 75c6 44bb 8194 dfbb 229f 0dbe f198 e63c
000000e0: 2e77 903d eb47 673c 1d04 863d ba1c 11bd
000000f0: 1e62 26be f2f9 9cbe d6ed a03d bbfa 33be
00000100: b915 80be d83a 80bd d1dd e5be c49e c1bd
00000110: e0c8 4fbd 3065 2c3e dafd 2f3e 750f 8c3e
00000120: 9d59 c93d 8f59 033c 2a16 9bbe c65f cd3a
00000130: 3661 80bd 90d0 163e a68e 99be a34d 2b3d
00000140: f851 2bbd ee55 60be fd69 713e 5bf8 efbe
00000150: 9f83 8e3d c00c 6f3e d7f8 35be 3fe2 e2bd
00000160: 438a c2bd 3d07 d9bc 7b00 033e f49b 583e
00000170: 98cc 94be deb0 d13d 3259 353e 26e6 41be
00000180: 5253 5bbe 501d cabe db96 eb3d a73c 203d
00000190: 3773 383d 8ed0 93be 2f57 3ebd 7a50 f9bc
000001a0: 9980 923e f3b7 8d3d 9b68 05be 52b4 e03d
000001b0: 2a44 7cbe 6e2d 45be 4e90 523d 847e 40be
000001c0: a1c1 56be 5cc4 593e 3702 a83e 1007 1f3f
000001d0: 865e 423c 080f 7c3d 0fd8 ab3d 4431 9c3e
000001e0: 7704 4b3e 16a6 b03d 726b b9bd e731 0a3e
000001f0: f84a 153d ccb6 113c ee55 953e 5704 b23e
00000200: 3fb8 c93e 5111 a5be 3ff0 9c3e 8b14 ac3e
00000210: 2aeb d5bd 5bad e73c 6b34 e93c 0627 31be
00000220: 81b2 863d 5ea4 af3e be30 9e3d af23 cabe
00000230: 72ed 1cbe 074a 1c3e 8675 25bd d8dd 6bbe
00000240: 00b5 4b39 c623 24bf 3c34 ff3d 6dc6 45bd
00000250: 490c acbd 1547 49bd 0073 2a3e 484f b83d
00000260: a20b c0be 9330 8bbe 25f0 5abd e2ba 743e
00000270: 1221 413e 8911 8dbe f52d bdbd 99e6 57be
00000280: 485a aa3d 0855 563d 4ef6 15be 6ecf 933c
00000290: 852d a1bd 83fd 0f3d 6586 29bd 32ae f43d
000002a0: 43e4 5d3e 7f84 273d 861e e0bd 2d37 a7bd
000002b0: 645f 88be eb63 003e 363b 8fbe 6fbe 633e
000002c0: 98d3 d5bd 5fe7 89be e240 ce3d 3187 0b3e
000002d0: 0167 893e e5d3 e43d e7d7 02be 33f4 cabd
000002e0: 10d5 4cbc 1f7d 993a b726 b83d 1b94 f3bd
000002f0: 5d68 a4bd b7a5 3cbd 42a5 a8bc 499a 2ebe
00000300: 6bd5 723e 228a 70bd c586 84be e2d4 9c3d
00000310: 4c4d 30be 30e6 893e 085f 7abe 9041 11be
00000320: c6fb 55be 4c93 10be 7903 0ebe 0ccf a23b
00000330: 5e0b 743e 3b34 353e ab28 2f3c 6ead c83e
00000340: 5696 523d f43b 86be d945 803e 4c2b 19bd
00000350: 232d a73e 623c 69be bd90 eebe ff53 813e
00000360: 1d8f f4bc 84b7 cb3e 0cec fdbe 940e a5bd
00000370: f592 8dbe ebfd 013e 53e6 e23d 889d 9e3d
00000380: 97ca b3bd 4300 72bd e89f 993d 0637 f4ba
00000390: 1b29 5e3e 856f 593e 0d2b af3c d47e 5a3e
000003a0: 0f05 3bbd 4cf8 16be dcaa c9bd b318 243e
000003b0: f168 193e b2b4 31be 9367 653d d502 33ba
000003c0: 5131 443e 9385 6c3e 8793 6abe c4ee 81bb
000003d0: dd92 a83d 5f55 c73b 2a74 3a3e 369e 57be
000003e0: b4d1 f8be b05e 2fbe 4f66 3e3d 2174 113f
000003f0: 785b 20bd f40f a2bc ee28 b0bd 0c72 d03d

state_val_net.0.0.bias f4 [128]
0.062633514 0.10008348 -0.05435723 -0.15320633 -0.0079630865 0.10354207 -0.14576156 0.062059622
0.023411661 0.05581111 0.0040260125 -0.13099647 -0.16041596 0.045983993 0.039857924 0.06688648
0.13498822 -0.059683584 -0.0643174 -0.10657272 0.14825602 0.022566855 -0.123997495 0.07605864
-0.16315356 -0.124610916 -0.1453644 0.061317492 0.014250097 0.16303693 0.019695044 -0.06804084
-0.1067729 0.14058979 0.019699914 -0.15785633 0.021111418 0.116368786 -0.06190361 0.040967193
-0.09751266 0.09012641 0.03932979 0.15591507 0.13915128 0.0073721795 -0.020413974 -0.08528415
0.04787838 0.08008571 -0.13957141 0.06891018 0.16135469 -0.019586442 0.09815842 -0.073118545
0.014781375 -0.118475355 0.079387054 0.13583803 -0.10610204 -0.12981334 0.112235166 0.020621601
-0.06276904 -0.10821115 0.14647253 -0.06706291 0.099482596 -0.012954582 -0.013371817 -0.060987532
-0.06427076 0.002496725 0.15151006 0.12493578 -0.016363319 0.12763765 0.13006261 -0.035150237
0.06870216 0.07392293 0.050573207 -0.04921885 -0.016198628 -0.023671722 0.0350922 -0.061575685
0.038104452 0.10633587 0.0884888 0.016257515 -0.1017162 -0.05192852 -0.033570267 -0.089604415
-0.12195664 -0.032206487 0.14118032 -0.030030182 -0.014786251 -0.018489413 -0.08845435 -0.11783173
-0.07992582 -0.15753017 0.0915496 0.028285882 -0.14796977 0.007062583 0.13997084 -0.11634313
-0.032258123 -0.16065258 0.13370939 0.16264683 0.09535509 -0.010500711 -0.11753984 -0.028700555
0.073074825 -0.09135909 -0.109606445 0.06394535 0.07912204 0.06078034 0.13165008 0.073622614
00000000: 0046 803d 91f8 cc3d b0a5 5ebd 1fe2 1cbe
00000010: 9b77 02bc dd0d d43d 8542 15be 3b32 7e3d
00000020: d0c9 bf3c 319a 643d a4ec 833b f023 06be
00000030: 1544 24be b659 3c3d 1042 233d c7fb 883d
00000040: 5a3a 0a3e c676 74bd d7b8 83bd cc42 dabd
00000050: 6dd0 173e 20de b83c 66f2 fdbd a2c4 9b3d
00000060: ba11 27be 0234 ffbd 68da 14be 0d28 7b3d
00000070: 3d79 693c 27f3 263e 8057 a13c ff58 8bbd
00000080: c0ab dabd c5f6 0f3e b761 a13c 17a5 21be
00000090: daf1 ac3c c252 ee3d a48e 7dbd 37cd 273d
000000a0: b8b4 c7bd 3294 b83d 4618 213d 33a8 1f3e
000000b0: ac7d 0e3e 5392 f13b 353b a7bc 75a9 aebd
000000c0: 1f1c 443d fa03 a43d cfeb 0ebe c820 8d3d
000000d0: 2a3a 253e bf73 a0bc 4807 c93d 2dbf 95bd
000000e0: 952d 723c 35a3 f2bd ae95 a23d 2019 0b3e
000000f0: 074c d9bd caed 04be 8ddb e53d a2ee a83c
00000100: 0e8d 80bd cf9d ddbd e5fc 153e 4758 89bd
00000110: 88bd cb3d 753f 54bc 7715 5bbc 10ce 79bd
00000120: 63a0 83bd 18a0 233b 7425 1b3e 55de ff3d
00000130: 5e0c 86bc 72b3 023e 222f 053e b2f9 0fbd
00000140: b8b3 8c3d e864 973d da25 4f3d b499 49bd
00000150: fcb2 84bc 33eb c1bc d7bc 0f3d c936 7cbd
00000160: 6a13 1c3d 9fc6 d93d 9e39 b53d 7b2e 853c
00000170: 9550 d0bd 00b3 54bd fa80 09bd 8582 b7bd
00000180: 67c4 f9bd f3ea 03bd 9391 103e db01 f6bc
00000190: 0842 72bc 1c77 97bc 8e27 b5bd c351 f1bd
000001a0: 26b0 a3bd 974f 21be 5b7e bb3d cbb7 e73c
000001b0: 6385 17be 3e6d e73b 8454 0f3e 4f45 eebd
000001c0: 1821 04bd 1c82 24be 1deb 083e e48c 263e
000001d0: 8849 c33d 2d0b 2cbc bab8 f0bd 6d1d ebbc
000001e0: 41a8 953d 791a bbbd 5879 e0bd c8f5 823d
000001f0: bc0a a23d cef4 783d 47cf 063e 74c7 963d

state_val_net.0.1.weight f4 [128]
0.49538666 0.72888464 0.20917055 0.18333086 0.71160734 0.6420099 0.6012419 0.8575916
0.18792802 0.72522825 0.14719835 0.60466874 0.7460567 0.32936168 0.8091639 0.9203061
0.42143747 0.6108016 0.6015355 -0.0055812914 0.680717 0.55841255 0.30058607 0.96985644
0.71178097 0.8988455 0.35811037 0.5006147 0.39433634 0.22096147 0.28398222 0.8978124
0.22585005 0.2053168 0.52337086 0.48771092 0.8171913 0.72827667 0.58429414 0.41979688
0.32473016 0.8795103 0.72476095 0.8312182 0.61085916 0.81553197 0.83906436 0.19394086
0.6974216 0.5517525 0.42028067 0.92501086 0.26880923 0.89978445 0.50254923 0.329614
0.7281969 0.5491546 0.21663903 0.107760854 0.43739918 0.24425246 0.3470715 0.44787213
0.49847183 1.0023477 0.4575378 0.77788776 0.23090598 0.9061983 0.76255953 0.5104664
0.47816283 0.26796332 0.28571075 0.48128635 0.72872126 0.1904007 0.51446295 0.18221241
0.385297 0.23327667 0.42671102 0.17718898 0.5114857 0.80320776 0.42744213 0.518725
0.34283304 0.40104282 0.16594478 0.7306795 0.6524371 0.34795317 0.32350552 0.5067644
0.17329296 0.4271511 0.3311136 0.82965094 0.5682252 0.08933204 0.27300727 0.7225244
0.4918628 0.79119414 0.3530847 0.91173524 0.31718078 0.3162387 0.1898524 1.0063595
0.36560407 0.7066806 0.94068027 0.61966103 0.17931658 0.56439376 1.0168234 0.16521974
0.24580319 0.61943716 0.25771967 0.71103686 0.77298325 0.24049889 0.41308334 0.30773908
00000000: 52a3 fd3e 2f98 3a3f ce30 563e 16bb 3b3e
00000010: e62b 363f c35a 243f fdea 193f 208b 5b3f
00000020: 3470 403e 8fa8 393f 2abb 163e 92cb 1a3f
00000030: 92fd 3e3f 18a2 a83e 5e25 4f3f 2e99 6b3f
00000040: a7c6 d73e 7e5d 1c3f 3bfe 193f 44e3 b6bb
00000050: 7843 2e3f 20f4 0e3f 6be6 993e 8348 783f
00000060: 4737 363f bd1a 663f 3e5a b73e 4928 003f
00000070: 74e6 c93e b943 623e 1e66 913e 09d7 653f
00000080: 3c45 673e 913e 523e a2fb 053f 3fb5 f93e
00000090: 7333 513f 5770 3a3f 4d94 153f 9eef d63e
000000a0: 0843 a63e 9627 613f ef89 393f b7ca 543f
000000b0: 4461 1c3f b4c6 503f eccc 563f 6f98 463e
000000c0: 398a 323f a73f 0d3f 072f d73e 83cd 6c3f
000000d0: 5da1 893e 4658 663f 11a7 003f 2bc3 a83e
000000e0: 1d6b 3a3f 6595 0c3f 9fd6 5d3e b9b1 dc3d
000000f0: c9f2 df3e 511d 7a3e 5bb3 b13e 7f4f e53e
00000100: b337 ff3e ee4c 803f 6542 ea3e a723 473f
00000110: 9e72 6c3e 9dfc 673f 1a37 433f edad 023f
00000120: c2d1 f43e 7d32 893e ae48 923e 2a6b f63e
00000130: 7a8d 3a3f 67f8 423e d8b3 033f e495 3a3e
00000140: a645 c53e 14e0 6e3e de79 da3e 0771 353e
00000150: baf0 023f 069f 4d3f b2d9 da3e 29cb 043f
00000160: d087 af3e 7c55 cd3e 6eed 293e d00d 3b3f
00000170: 1e06 273f eb26 b23e 84a2 a53e 50bb 013f
00000180: b673 313e 8db3 da3e b987 a93e 0164 543f
00000190: 3577 113f b7f3 b63d 9cc7 8b3e 5cf7 383f
000001a0: 71d5 fb3e b38b 4a3f 85c7 b43e 7b67 693f
000001b0: 8565 a23e 0aea a13e ab68 423e 63d0 803f
000001c0: 7530 bb3e 05e9 343f 6cd0 703f 1ba2 1e3f
000001d0: c49e 373e 1c7c 103f 4527 823f 5d2f 293e
000001e0: d5b3 7b3e 6f93 1e3f d5f3 833e 8306 363f
000001f0: 3be2 453f 5745 763e a97f d33e fa8f 9d3e

state_val_net.0.1.bias f4 [128]
0.037660662 -0.007833033 -0.21919647 -0.049583256 -0.3895897 0.0029052598 0.14045234 0.15291975
-0.062403224 -0.30116284 -0.028666615 0.044589527 0.095815025 0.18662868 0.11961933 -0.060018703
-0.16454184 -0.12867293 0.28204873 -0.021530153 -0.26132947 -0.08472895 0.023214636 0.00128985
-0.08099471 0.16997892 0.081746355 0.08380902 -0.06263521 -0.10277184 0.0441447 0.005615488
-0.12028804 -0.03198996 0.146371 0.018726114 0.1687825 -0.24876392 0.05826223 -0.16558315
-0.08703598 0.0211742 -0.28964758 0.040773194 0.26880544 -0.09433135 -0.19720148 0.110205024
-0.2151456 -0.2841263 0.11397617 -0.31590843 0.072891854 0.43532366 -0.050449993 0.05933157
-0.06942164 -0.0003603095 0.19437607 0.06024598 -0.09895328 0.08661838 0.006705109 0.0060245884
-0.24300756 -0.20458084 -0.16360891 -0.0205572 -0.0949259 0.010723254 -0.16273133 -0.0050269137
0.27171853 0.016869571 0.13624415 0.19297647 -0.14824353 -0.029642401 -0.13310623 -0.16100395
-0.17194788 0.012279218 0.021496776 0.016989999 -0.2892825 -0.045582734 -0.10806694 0.09427981
0.05200945 -0.117376976 -0.12922311 -0.0056441133 0.11194198 0.07932755 0.032534722 -0.18027411
0.098499246 -0.29414338 -0.098629266 0.1359606 -0.12228383 -0.097426586 -0.021150257 -0.17236438
0.083993584 0.10884411 0.057042647 -0.1454843 -0.05891664 -0.18851815 -0.07524914 -0.4344177
0.028694538 0.01382585 0.03787179 -0.039146468 -0.07594124 -0.1881032 0.21591759 -0.09760336
-0.08651291 0.024437515 -0.21047805 0.40080747 -0.06820729 0.02042797 0.09605026 -0.069788955
00000000: 1142 1a3d 1f56 00bc 0a75 60be d017 4bbd
00000010: 4d78 c7be 2c66 3e3b bdd2 0f3e ff96 1c3e
00000020: 869a 7fbd 0432 9abe 40d6 eabc 82a3 363d
00000030: ab3a c43d 971b 3f3e fbfa f43d 2cd6 75bd
00000040: a87d 28be d6c2 03be b168 903e 0160 b0bc
00000050: facc 85be 5f86 adbd 9f2c be3c 2f10 a93a
00000060: 8ee0 a5bd f40e 2e3e a26a a73d 10a4 ab3d
00000070: e446 80bd 0b7a d2bd 13d1 343d 2102 b83b
00000080: 9359 f6bd e807 03bd 48e2 153e 8267 993c
00000090: 52d5 2c3e f8bb 7ebe 60a4 6e3d a18e 29be
000000a0: eb3f b2bd 8475 ad3c b04c 94be cb01 273d
000000b0: dea0 893e cb30 c1bd 2fef 49be 2cb3 e13d
000000c0: 214f 5cbe 0179 91be 576c e93d c0be a1be
000000d0: 5348 953d bee2 de3e a7a4 4ebd a905 733d
000000e0: ef2c 8ebd ece7 bcb9 850a 473e 7dc4 763d
000000f0: 04a8 cabd fa64 b13d 88b6 db3b e969 c53b
00000100: f9d6 78be a47d 51be 1889 27be 9367 a8bc
00000110: 8368 c2bd 96b0 2f3c 0ba3 26be cfb8 a4bb
00000120: b11e 8b3e 0e32 8a3c 9683 0b3e a09b 453e
00000130: 27cd 17be 9fd4 f2bc 004d 08be 38de 24be
00000140: 1b13 30be c62e 493c 021a b03c 9c2e 8b3c
00000150: d61c 94be f6b4 3abd 3352 ddbd c615 c13d
00000160: dc07 553d 5763 f0bd 1053 04be 41f2 b8bb
00000170: d641 e53d 7c76 a23d 2143 053d c799 38be
00000180: f9b9 c93d f699 96be 24fe c9bd 4139 0b3e
00000190: f26f fabd 9787 c7bd 4e43 adbc 4a80 30be
000001a0: d404 ac3d a9e9 de3d 8da5 693d d6f9 14be
000001b0: 9352 71bd e70a 41be 391c 9abd ff6b debe
000001c0: cf10 eb3c d185 623c 731f 1b3d 0c58 20bd
000001d0: 1587 9bbd 209e 40be 8019 5d3e 45e4 c7bd
000001e0: ae2d b1bd 2f31 c83c 8f87 57be a336 cd3e
000001f0: 43b0 8bbd 8f58 a73c 00b6 c43d 83ed 8ebd

state_val_net.0.1.running_mean f4 [128]
0.93138385 -0.13188809 -0.14569592 0.2592625 -0.37750566 0.5866026 -0.24387172 1.0884392
0.2085513 0.09392443 -0.01787528 -0.42594117 -0.2970629 -0.51621044 -1.7031499 -0.894594
-0.2151147 -0.16685696 1.102557 -0.8981148 -0.26055905 0.726465 -0.023328345 -0.93374985
0.8506315 -1.9432361 0.3808855 1.5535457 0.45643428 -0.7361279 -0.07415967 -0.61769193
-0.50218046 -0.25897986 -0.88318515 -0.1828773 1.3350955 -0.41283798 0.96588784 -0.96318734
0.7583666 -0.30405027 0.776446 -1.0830871 2.3236234 -0.88308644 -0.3598996 -0.8084526
-0.48322552 -0.199654 -0.32608265 -0.34066865 0.54984105 2.7134628 -0.09721515 -0.6714945
-0.7762293 0.114597 1.3750901 1.3632938 -0.22821113 -1.4978843 0.52654165 -0.21966411
-1.64261 -0.8301328 -0.4242962 -0.14113823 -0.098786764 1.9366205 -0.31061512 -1.1229497
1.436664 0.8053523 -0.1269462 -0.2354246 -0.54884577 0.8264628 -0.21367767 -0.16583413
1.6649185 -0.8415214 -0.31000397 -0.79203016 -0.68875587 -0.7404621 0.91886204 -1.8622248
-2.9928002 0.030295776 0.101447426 -0.761534 0.8760094 -0.30700204 -0.2316909 0.2542379
0.01507918 -0.53482056 -0.7570143 -1.2899787 0.019860312 -0.68767905 0.566979 -0.51130295
0.33094797 1.038406 -1.6050014 0.13262086 -0.40111586 -0.306234 -1.2555547 0.047037493
0.20152724 1.3275274 0.49219963 -0.36143067 -1.1335629 -0.07039512 -0.96864504 -0.25309506
-1.4450006 0.41678715 -0.50651294 2.4551888 0.6501765 0.36585176 -1.5583571 -0.28668833
00000000: 2c6f 6e3f ac0d 07be 5031 15be 0ebe 843e
00000010: 6c48 c1be 972b 163f 82b9 79be fa51 8b3f
00000020: 798e 553e 745b c03d 2e6f 92bc f614 dabe
00000030: a118 98be 5e26 04bf d100 dabf 1d04 65bf
00000040: 0747 5cbe 8ddc 2abe 9620 8d3f daea 65bf
00000050: ff67 85be 9cf9 393f 161b bfbc 3b0a 6fbf
00000060: fcc2 593f f6bb f8bf 6d03 c33e 96da c63f
00000070: c1b1 e93e e172 3cbf 06e1 97bd 0f21 1ebf
00000080: e68e 00bf 0299 84be 6c18 62bf 3044 3bbe
00000090: 69e4 aa3f 805f d3be 6d44 773f 7293 76bf
000000a0: 5024 423f 7aac 9bbe 2ac5 463f 99a2 8abf
000000b0: 3fb6 1440 f411 62bf c344 b8be c0f6 4ebf
000000c0: 5669 f7be 1972 4cbe 4ef4 a6be 1f6c aebe
000000d0: 62c2 0c3f 60a9 2d40 bd18 c7bd 10e7 2bbf
000000e0: f7b6 46bf d5b1 ea3d f402 b03f 6980 ae3f
000000f0: 2eb0 69be acba bfbf 6fcb 063f a1ef 60be
00000100: 0b41 d2bf 9583 54bf 5a3d d9be 8a86 10be
00000110: b750 cabd 2ee3 f73f f208 9fbe d1bc 8fbf
00000120: 9be4 b73f 912b 4e3f 2ffe 01be 2513 71be
00000130: 2881 0cbf 1193 533f 52ce 5abe 6cd0 29be
00000140: 0d1c d53f f26d 57bf d7b8 9ebe 7dc2 4abf
00000150: 4e52 30bf ed8e 3dbf 8b3a 6b3f 625d eebf
00000160: 0a8a 3fc0 d92e f83c abc3 cf3d e4f3 42bf
00000170: 2742 603f 5f2f 9dbe 6140 6dbe 782b 823e
00000180: aa0e 773c 00ea 08bf b0cb 41bf 061e a5bf
00000190: 18b2 a23c bc0b 30bf 8925 113f c0e4 02bf
000001a0: 0372 a93e 7dea 843f b070 cdbf c3cd 073e
000001b0: 0f5f cdbe b4ca 9cbe 04b6 a0bf 63aa 403d
000001c0: 285d 4e3e 6bec a93f 9701 fc3e 710d b9be
000001d0: 9718 91bf 512b 90bd 1ff9 77bf ad95 81be
000001e0: c8f5 b8bf 2065 d53e d5aa 01bf d021 1d40
000001f0: f871 263f ec50 bb3e 3f78 c7bf d0c8 92be

state_val_net.0.1.running_var f4 [128]
0.42589036 0.28504437 0.4441496 0.31981516 0.18717119 0.91540927 0.38821325 4.2052565
1.4886415 0.20628746 0.42146546 0.3431134 0.19600636 1.4871881 6.7244635 1.0225109
0.22816929 0.19521193 2.9694965 0.7327774 0.6358073 0.3748928 0.3198508 3.620846
2.7896547 7.7063074 1.2173328 1.1217806 0.2943504 0.46584103 0.10109492 0.9892186
0.47790563 0.40494937 1.0221605 0.23862904 3.3852232 0.28579712 0.6989497 0.62078816
1.534216 2.0135121 0.35836372 3.6254082 8.371722 0.5593175 0.24122657 0.58301646
1.2948551 0.19180292 0.37588084 0.17365433 0.24647646 9.26442 0.5783091 0.4857682
1.5254463 0.45222208 4.104825 0.39081645 0.25717655 2.1874352 0.24652424 0.25384197
7.7551003 0.24928966 0.35723728 0.92449224 0.9236526 5.294086 0.3459131 1.6400434
4.2817926 0.22802037 0.43057972 3.137592 0.6738997 0.20414753 0.34055263 0.1763496
2.536097 1.3381402 0.32968304 0.4976583 1.4260798 2.3743284 0.7119533 4.8060727
9.995045 0.42824525 0.21689622 0.41190344 0.15552972 0.3187902 0.31074223 0.23025768
0.23919702 0.27320793 0.7594523 3.4614992 0.12626387 1.6119984 0.5291193 1.4372256
2.2622721 1.5076606 7.490643 0.4689184 0.2450672 0.24161783 1.2096071 0.1691047
0.34744608 3.8444862 0.50579727 0.36905974 2.5524657 0.2253088 1.0550823 0.3920386
6.612612 1.2802689 0.16858566 8.912282 0.62674534 0.29704064 3.9774063 0.29375216
00000000: 4d0e da3e 56f1 913e 9467 e33e d0be a33e
00000010: cea9 3f3e 4358 6a3f e3c3 c63e 7691 8640
00000020: ce8b be3f 053d 533e 52ca d73e 8fac af3e
00000030: e4b5 483e 2e5c be3f ce2e d740 a3e1 823f
00000040: 36a5 693e a3e5 473e 3b0c 3e40 4d97 3b3f
00000050: 44c4 223f f3f1 bf3e 7cc3 a33e f1bb 6740
00000060: b489 3240 129a f640 90d1 9b3f 8296 8f3f
00000070: 18b5 963e b782 ee3e da0a cf3d 6e3d 7d3f
00000080: 0cb0 f43e 8655 cf3e 28d6 823f 2c5b 743e
00000090: 7fa7 5840 0054 923e 5eee 323f f9eb 1e3f
000000a0: 3161 c43f 62dd 0040 737b b73e b006 6840
000000b0: 93f2 0541 6f2f 0f3f 1904 773e 9140 153f
000000c0: d0bd a53f fc67 443e 7473 c03e 71d2 313e
000000d0: 5364 7c3e 103b 1441 110c 143f 9cb6 f83e
000000e0: d341 c33f a789 e73e ba5a 8340 1819 c83e
000000f0: a5ac 833e f0fe 0b40 da70 7c3e 93f7 813e
00000100: c829 f840 ca45 7f3e cee7 b63e 86ab 6c3f
00000110: 7f74 6c3f 2769 a940 861b b13e f1ec d13f
00000120: 7204 8940 2c7e 693e f274 dc3e 4fce 4840
00000130: b184 2c3f 0d0c 513e ea5c ae3e fd94 343e
00000140: 6a4f 2240 2e48 ab3f 37cc a83e 12cd fe3e
00000150: c889 b63f fff4 1740 9242 363f 59cb 9940
00000160: b4eb 1f41 f642 db3e 0b1a 5e3e 02e5 d23e
00000170: 2f43 1f3e 7838 a33e 9b19 9f3e abc8 6b3e
00000180: 10f0 743e e9e1 8b3e 776b 423f 3489 5d40
00000190: 514b 013e f755 ce3f 5d74 073f 02f7 b73f
000001a0: 11c9 1040 06fb c03f 59b3 ef40 1316 f03e
000001b0: e5f2 7a3e aa6a 773e 68d4 9a3f c829 2d3e
000001c0: 74e4 b13e 100c 7640 ee7b 013f 66f5 bc3e
000001d0: 995b 2340 5ab7 663e f00c 873f 49b9 c83e
000001e0: 849a d340 dadf a33f b8a1 2c3e b598 0e41
000001f0: 6272 203f b615 983e d38d 7e40 af66 963e

state_val_net.1.0.weight f4 [32, 128]
0.055896837 0.012890423 0.16164911 0.292818 -0.06897009 -0.08878717 0.106708564 -0.25655422
-0.061103597 -0.23552391 0.24046086 0.019021703 -0.17090222 0.13151565 0.015180383 -0.12427776
-0.075857915 0.09534107 -0.23997211 0.019407395 -0.035844073 -0.1144763 -0.09405207 0.06044724
-0.037460547 0.13101976 -0.28540733 0.02076072 0.082053155 0.0063363323 -0.051146515 0.08321814
-0.05040998 -0.20296568 -0.039141547 -0.19132152 0.09000698 0.012995115 -0.045262 0.11859327
-0.08953267 -0.21467708 0.1096796 -0.1945437 -0.10311974 -0.0028429914 0.21854421 0.014251433
0.118024364 0.0987825 -0.22159389 -0.15903986 -0.09756867 -0.13044472 -0.17032382 0.0418329
-0.08507509 -0.042846248 -0.017939264 -0.024102684 -0.07614435 0.21076198 -0.15050831 -0.012975287
-0.076914676 -0.21743627 0.015115265 0.15687501 0.14110449 -0.17013438 -0.0825438 0.03343089
0.05197989 0.10820042 -0.19093461 0.11036856 0.028546698 0.21406825 -0.18390113 -0.1076782
-0.06500891 -0.03931488 0.058341105 -0.05411001 -0.19351432 -0.13778286 -0.10352501 0.052108295
0.017075319 -0.05788636 0.07373774 -0.17285722 0.36958513 0.049939264 -0.15759416 0.023830147
0.13520697 -0.2736063 -0.25011733 0.051787104 0.015722616 0.09783351 0.0793418 -0.03526482
-0.031594492 -0.005439849 0.012855018 0.08518664 0.06493494 -0.2367721 -0.047005422 -0.020571077
0.013583229 -0.068637915 0.2130845 0.17391828 -0.14108747 0.10047372 0.19214216 0.028561752
-0.15521158 -0.22640875 0.021569028 -0.059395798 -0.00012095735 -0.37135765 -0.05250066 -0.11295952
0.18477593 0.02687922 -0.15038863 0.08114255 -0.14903228 -0.055805396 -0.056326635 0.13515408
0.0823469 0.35415012 -0.22574194 0.032147016 -0.11007799 -0.17184913 0.07793627 0.109311976
-0.29945627 0.10007549 0.077830605 -0.0004991499 0.17558825 0.047178928 -0.027272772 -0.12342992
0.038299203 0.0072836103 0.049335904 -0.15078475 0.09118178 0.10216814 0.16586682 -0.15146708
-0.232197 0.039259236 -0.09313332 -0.17461522 -0.07109363 -0.09871354 -0.046283115 -0.034534052
-0.024539176 -0.098733276 0.0059560617 -0.008773123 0.0044119325 0.03760384 -0.0134679135 0.13732353
-0.2866643 -0.034840006 0.06572375 0.114717215 -0.0385513 0.13107686 -0.034582365 -0.1277496
0.23188569 -0.24843219 0.114275835 0.023184955 -0.028839787 -0.018205803 0.06497275 0.07705424
0.050674934 -0.17552422 0.20134404 -0.05377193 -0.112215504 -0.0074258186 0.017412938 -0.008042411
0.038265724 -0.027575666 0.21861547 0.06781213 -0.15338357 -0.021435421 0.013424257 0.20434165
0.10926455 0.021575375 0.061451066 0.17840001 0.13357449 -0.067095965 0.012497419 0.18317734
0.038184248 0.045416918 0.36608022 0.01615314 -0.28775373 -0.27059042 0.21693788 -0.18670489
-0.015708774 0.13409962 0.104349665 -0.026633244 -0.09572826 0.03196399 0.14138249 -0.20250067
0.05757359 -0.15918736 0.048821706 -0.115066335 -0.09051537 0.11113393 0.15263714 -0.07165524
0.022037944 0.1305848 0.22583064 -0.21435894 0.21815826 -0.21645969 0.014769301 0.19601312
-0.18364349 0.075970784 -0.17081803 0.10803059 -0.05675604 -0.07826407 0.063242495 0.097699374
00000000: 15f4 643d 5a32 533c 5887 253e 3eec 953e
00000010: 3140 8dbd 0cd6 b5bd 058a da3d 135b 83be
00000020: c447 7abd 2e2d 71be 5f3b 763e 67d3 9b3c
00000030: fe00 2fbe 0aac 063e 24b7 783c 5785 febd
00000040: 655b 9bbd 2e42 c33d 40bb 75be 42fc 9e3c
00000050: 3cd1 12bd 8d72 eabd 5f9e c0bd 8697 773d
00000060: 3b70 19bd 0b2a 063e e920 92be 6312 aa3c
00000070: 7c0b a83d 02a1 cf3b 027f 51bd 466e aa3d
00000080: b27a 4ebd 3cd6 4fbe e352 20bd cae9 43be
00000090: 9455 b83d 76e9 543c a664 39bd 07e1 f23d
000000a0: e85c b7bd 4fd4 5bbe b39f e03d 7736 47be
000000b0: 7130 d3bd 7b51 3abb 0eca 5f3e d87e 693c
000000c0: c2b6 f13d 7b4e ca3d 82e9 62be 58db 22be
000000d0: 15d2 c7bd 4d93 05be 5e69 2ebe fa58 2b3d
000000e0: d93b aebd 8c7f 2fbd 5df5 92bc fe72 c5bc
000000f0: 92f1 9bbd fdd1 573e da1e 1abe 4c96 54bc
00000100: 7185 9dbd 9da7 5ebe 04a6 773c d8a3 203e
00000110: b27d 103e b537 2ebe b90c a9bd d4ee 083d
00000120: dde8 543d 2f98 dd3d 5d84 43be e908 e23d
00000130: c4da e93c b534 5b3e 9450 3cbe 6386 dcbd
00000140: 6423 85bd a408 21bd 15f7 6e3d 75a2 5dbd
00000150: 9e28 46be f316 0dbe ec04 d4bd 826f 553d
00000160: 8ae1 8b3c 3f1a 6dbd d003 973d 7c01 31be
00000170: 433a bd3e 1d8d 4c3d 5d60 21be 7137 c33c
00000180: b273 0a3e 2016 8cbe 610f 80be b71e 543d
00000190: b7cc 803c ef5c c83d f47d a23d d871 10bd
000001a0: 3a69 01bd c340 b2bb da9d 523c 5576 ae3d
000001b0: 9cfc 843d 6374 72be c288 40bd ad84 a8bc
000001c0: 318c 5e3c 0992 8cbd d332 5a3e a217 323e
000001d0: 3c79 10be 2ac5 cd3d eac0 443e 56fa e93c
000001e0: c9ef 1ebe b2d7 67be 88b1 b03c 0249 73bd
000001f0: 7caa fdb8 9722 bebe ef0a 57bd 5257 e7bd
00000200: e735 3d3e cf31 dc3c 7aff 19be 112e a63d
00000210: eb9b 18be 3394 64bd c2b6 66bd d565 0a3e
00000220: 7ea5 a83d 2a53 b53e e528 67be 97ac 033d
00000230: 9270 e1bd 38f9 2fbe 0d9d 9f3d f5de df3d
00000240: 5552 99be 61f4 cc3d a765 9f3d 62d9 02ba
00000250: 68cd 333e b13e 413d 266b dfbc d3c8 fcbd
00000260: a0df 1c3d 5aab ee3b 7214 4a3d 5167 1abe
00000270: 83bd ba3d 883d d13d fed8 293e 301a 1bbe
00000280: 0dc5 6dbe 4bce 203d afbc bebd 55ce 32be
00000290: 8999 91bd 532a cabd 5d93 3dbd 9473 0dbd
000002a0: 6206 c9bc ac34 cabd 112b c33b 25bd 0fbc
000002b0: f991 903b 7c06 1a3d 86a8 5cbc 8a9e 0c3e
000002c0: aac5 92be 65b4 0ebd 2c9a 863d dcf0 ea3d
000002d0: f8e7 1dbd 0339 063e 3da6 0dbd cbd0 02be
000002e0: 7173 6d3e 0265 7ebe 7309 ea3d 60ee bd3c
000002f0: 6b41 ecbc 5624 95bc 6f10 853d 9dce 9d3d
00000300: 8590 4f3d 9fbc 33be 222d 4e3e f53f 5cbd
00000310: 3ed1 e5bd 4854 f3bb 94a5 8e3c 51c4 03bc
00000320: 85bc 1c3d 5de6 e1bc bcdc 5f3e 16e1 8a3d
00000330: 9510 1dbe 5699 afbc 6af1 5b3c f03e 513e
00000340: 18c6 df3d d7be b03c 1db4 7b3d 7eae 363e
00000350: c0c7 083e 9c69 89bd f9c1 4c3c d792 3b3e
00000360: 1667 1c3d 1707 3a3d de6e bb3e 9753 843c
00000370: 7554 93be d48a 8abe f724 5e3e 912f 3fbe
00000380: b0af 80bc 6951 093e 47b5 d53d f62d dabc
00000390: 2e0d c4bd acec 023d 92c6 103e 565c 4fbe
000003a0: 49d2 6b3d 0302 23be 45f9 473d e6a7 ebbd
000003b0: 1f60 b9bd 309a e33d e94c 1c3e fcbf 92bd
000003c0: eb88 b43c 06b8 053e 2640 673e e980 5bbe
000003d0: e164 5f3e 9ca7 5dbe f0fa 713c aab7 483e
000003e0: 0a0d 3cbe 9296 9b3d ecea 2ebe 243f dd3d
000003f0: 0579 68bd ea48 a0bd 4885 813d 9c16 c83d

state_val_net.1.0.bias f4 [32]
-0.07944339 0.04263053 -0.070646115 -0.078292996 -0.07595751 0.087331146 -0.071867295 0.085795745
0.04029988 -0.04871001 0.034483623 -0.042844485 -0.06139892 -0.040191263 0.04376625 0.030818725
-0.018934809 -0.060742877 -0.052265134 0.052819207 0.03532403 -0.051020175 -0.013979167 0.058240753
0.07300871 -0.0649481 0.08182893 -0.062046975 -0.047329385 0.01769099 0.072177716 0.02889172
00000000: 37b3 a2bd 5a9d 2e3d e9ae 90bd 1458 a0bd
00000010: 9c8f 9bbd acda b23d 292f 93bd aeb5 af3d
00000020: 7d11 253d 2684 47bd b33e 0d3d b37d 2fbd
00000030: 6f7d 7bbd 989f 24bd 3d44 333d 8d77 fc3c
00000040: 2c1d 9bbc 86cd 78bd f713 56bd f458 583d
00000050: eeaf 103d 88fa 50bd e008 65bc db8d 6e3d
00000060: 9785 953d 8203 85bd ed95 a73d f824 7ebd
00000070: 75dc 41bd b2ec 903c e9d1 933d 54ae ec3c

state_val_net.1.1.weight f4 [32]
0.09061045 0.96323794 0.64694655 0.0023128006 0.6987984 0.28671274 0.59367275 0.38339242
0.31779927 0.26383182 0.7833603 0.4352411 0.7069402 0.897891 0.106987834 0.29476857
0.068451434 0.491024 0.37708545 0.45520186 0.51382035 0.44190636 0.61225283 0.5392996
0.52528876 0.21604276 0.60480887 0.43797618 0.6143063 0.69365495 0.6732378 0.81497645
00000000: f991 b93d c396 763f 4a9e 253f 5b92 173b
00000010: 74e4 323f 03cc 923e f0fa 173f 034c c43e
00000020: 96b6 a23e f714 873e 4d8a 483f ecd7 de3e
00000030: 08fa 343f 2fdc 653f 701c db3d e8eb 963e
00000040: 4430 8c3d 7f67 fb3e 5811 c13e 3810 e93e
00000050: bb89 033f 8d41 e23e 9abc 1c3f 8a0f 0a3f
00000060: 5379 063f 503a 5d3e c1d4 1a3f 6a3e e03e
00000070: 2d43 1d3f 5f93 313f 5059 2c3f 4ca2 503f

state_val_net.1.1.bias f4 [32]
0.24818955 0.06149118 0.032002605 -0.013199561 0.30450523 -0.20576641 0.30226827 -0.29487655
0.2084308 0.023230588 0.19681369 -0.2325593 -0.1583541 0.2457987 0.22679904 -0.0083537325
0.18318371 -0.28627598 0.22520848 -0.47351202 0.1990005 0.00095590006 -0.26469925 -0.16951057
-0.25605863 -0.1688722 -0.37485158 -0.22442989 -0.39960757 -0.2877252 0.16122921 -0.20995513
00000000: 6725 7e3e 2dde 7b3d 2a15 033d f942 58bc
00000010: 1ce8 9b3e 6eb4 52be e8c2 9a3e 0ffa 96be
00000020: e26e 553e 134e be3c 8789 493e 0624 6ebe
00000030: 9427 22be a8b2 7b3e 023e 683e 18de 08bc
00000040: 8394 3b3e c492 92be 0d9d 663e 2b70 f2be
00000050: c9c6 4b3e 5e95 7a3a a986 87be 2e94 2dbe
00000060: 1e1a 83be d6ec 2cbe 8cec bfbe f3d0 65be
00000070: 5d99 ccbe b850 93be 4519 253e 7afe 56be

state_val_net.1.1.running_mean f4 [32]
-0.70527697 0.028193295 -0.83933926 -0.35287488 -1.1074575 -0.11738478 -1.385891 0.10369707
-0.19767556 0.2519555 0.3809083 0.20012817 0.434316 -0.9898101 -1.5231895 -0.41243333
0.061757714 -1.3838514 -0.68668455 0.29554328 0.27771306 0.015235027 0.8839271 -1.5549487
0.9332228 -0.21728374 -0.06464582 0.8292737 -1.0292723 -1.0702151 1.3431032 1.1321621
00000000: 088d 34bf a0f5 e63c f0de 56bf 04ac b4be
00000010: 2bc1 8dbf 6e67 f0bd e064 b1bf 215f d43d
00000020: 766b 4abe 5000 813e 6a06 c33e 66ee 4c3e
00000030: ab5e de3e 3264 7dbf e0f7 c2bf 762a d3be
00000040: a8f5 7c3d 0b22 b1bf 8fca 2fbf 7351 973e
00000050: 6830 8e3e 569c 793c 0c49 623f 8f08 c7bf
00000060: b0e7 6e3f a17f 5ebe 0765 84bd 484b 543f
00000070: 32bf 83bf cffc 88bf ceea ab3f b0ea 903f

state_val_net.1.1.running_var f4 [32]
0.8379708 0.51582503 0.5220404 0.11068556 4.986723 3.8335264 6.7332807 0.30941
0.39284378 0.27899837 5.113742 0.35016134 1.2391282 5.0725327 0.6276204 0.16453727
2.3349867 6.4758058 3.038989 0.12722075 5.972344 0.35242155 2.6038115 2.3739533
3.4985647 2.485316 0.12171059 5.278317 1.5273727 1.0627255 2.8278923 0.19918182
00000000: 4185 563f 1c0d 043f 71a4 053f 1caf e23d
00000010: 3c93 9f40 7f58 7540 0977 d740 fd6a 9e3e
00000020: d222 c93e e0d8 8e3e c6a3 a340 5948 b33e
00000030: c19b 9e3f 3052 a240 bbab 203f 757c 283e
00000040: 6c70 1540 cd39 cf40 cc7e 4240 2846 023e
00000050: 711d bf40 9970 b43e d9a4 2640 daee 1740
00000060: 7ce8 5f40 6b0f 1f40 6743 f93d f9e7 a840
00000070: f380 c33f 6407 883f 30fc 3440 52f6 4b3e

state_val_net.2.weight f4 [1, 32]
0.3589451 0.06042526 0.031450886 -0.26401147 0.31626147 -0.18658021 0.3535701 -0.026096774
0.13045526 0.21318312 0.22541681 -0.041227262 -0.05700053 0.22197826 0.42138553 0.0979465
0.27685598 -0.23920788 0.23076458 -0.05032128 0.42853838 0.2977096 -0.040823594 -0.12914777
-0.102331705 -0.07117514 0.1014217 -0.19298284 0.0017271945 -0.04640968 0.28518942 -0.04417858
00000000: a7c7 b73e 7a80 773d a5d2 003d 832c 87be
00000010: 06ed a13e e20e 3fbe 2407 b53e e7c8 d5bc
00000020: 1096 053e ad4c 5a3e aad3 663e ebdd 28bd
00000030: 6379 69bd 454e 633e d8bf d73e 2d98 c83d
00000040: 11c0 8d3e e9f2 74be 8d4d 6c3e b01d 4ebd
00000050: 6269 db3e 656d 983e a436 27bd 503f 04be
00000060: 4993 d1bd 46c4 91bd 2eb6 cf3d 4b9d 45be
00000070: 0863 e23a 1418 3ebd 5904 923e 99f4 34bd

advantage_net.0.0.weight f4 [128, 37]
-0.19593175 -0.13014337 -0.084436156 -0.032529857 -0.0010989134 0.29751375 -0.16974427 -0.29906535
0.01794764 -0.41949412 0.028008685 0.048994403 0.06219173 0.1293244 -0.14281024 0.038136683
-0.20415635 0.16843306 0.12814203 0.0958825 -0.039686695 0.15350394 -0.03172338 0.22317107
-0.06281625 -0.20407137 0.07177749 -0.07127262 -0.054270618 0.34292543 -0.022303345 -0.036189865
0.08653202 0.061492633 -0.11155414 0.0074348897 0.06717317 -0.0054001664 -0.032185625 -0.017614726
0.12434525 0.09159926 0.28322938 -0.018692434 0.03537175 0.014541082 0.19678639 -0.12041758
0.10283668 0.28078693 0.113644324 0.29977936 -0.18116471 0.09013926 -0.05939183 -0.17420743
-0.1032403 -0.030377401 0.020996006 -0.18973465 -0.027457364 0.007994779 0.015541471 -0.008125167
0.15367943 -0.38770342 -0.19231275 0.32177716 0.091669984 0.17528981 -0.041979294 -0.5103233
-0.011211774 0.034890488 -0.15662795 -0.20285054 0.0020616292 0.009609977 0.0044398103 -0.20058697
-0.19074698 0.007618404 0.20901996 0.14080836 0.30615336 -0.063168384 -0.15429261 -0.15438198
-0.63321185 0.205424 0.016990745 0.07239009 -0.015472059 0.042744547 -0.10543466 -0.045759954
0.27875865 -0.070475556 -0.26860064 0.100168794 0.0052724504 0.044140693 -0.06746967 0.059499778
-0.06639097 0.18808918 -0.109452404 0.057542447 0.124998294 -0.07667015 0.05999262 0.22115931
0.0021937983 0.36444896 -0.11194152 0.4225957 -0.27083018 -0.26343226 -0.10367594 0.28754956
0.14361945 0.19785975 0.0642365 0.039815754 -0.11982259 -0.20727117 0.1415688 -0.15835181
-0.029972626 -0.21376687 0.27121776 -0.005002505 -0.059799645 0.0043642367 0.2468988 0.04592003
0.07924544 -0.06523303 -0.30685452 0.0388066 0.20107143 0.32730532 0.0064633335 0.0316852
-0.052035753 0.20718063 -0.1693642 -0.23638085 0.30462185 -0.12556627 0.028569715 0.116088495
-0.11186307 0.32781434 -0.118162535 -0.04930788 0.018135373 0.12907203 -0.053514943 0.011822814
0.0044865445 0.46624917 0.40065968 -0.39769986 0.07244633 0.09417048 -0.13630398 -0.20734677
-0.123535626 0.050050862 0.1578353 0.008776591 0.14229377 -0.27050817 0.18651806 -0.022764832
0.00016910196 0.17766827 0.05066118 0.018978754 -0.35459003 0.075265326 0.077150054 0.36194608
-0.24101792 -0.08643458 -0.10899847 -0.0602514 0.029264461 0.03136549 -0.020887004 0.14533809
0.19896726 0.03376008 -0.027795317 0.31657678 0.10232404 0.06124898 0.03240081 -0.44961393
-0.004272626 0.14675175 0.07550059 0.020244757 -0.09976905 0.18189242 0.064366385 -0.06847122
-0.12006386 -0.9013435 -0.021063814 0.087827064 0.068879746 0.1961831 0.14759296 -0.11339258
0.022901617 0.12546562 0.116546325 0.50897944 -0.0048064846 -0.019479526 0.052466657 0.0931227
-0.19630812 0.05341838 0.30823004 0.012177514 0.3277538 0.05566169 -0.005607802 -0.19495226
-0.16322982 0.0037131284 0.11424928 -0.11920673 -0.36660734 -0.12873818 0.19222084 0.03555999
0.24827576 -0.10096205 0.07589899 0.37098116 0.0266485 -0.43051714 0.061978064 0.07172544
0.25328934 -0.061549902 0.027775487 -0.13669062 0.055917278 0.10643929 0.04406566 0.20282848
00000000: 55a2 48be 4e44 05be ddec acbd 073e 05bd
00000010: 6a09 90ba b953 983e 71d1 2dbe 181f 99be
00000020: ee06 933c efc7 d6be 7872 e53c 5bae 483d
00000030: c1bc 7e3d 9e6d 043e d93c 12be 3635 1c3d
00000040: 5d0e 51be b779 2c3e aa37 033e 0b5e c43d
00000050: 848e 22bd 2330 1d3e 60f0 01bd f586 643e
00000060: cea5 80bd 16f8 50be 1400 933d 61f7 91bd
00000070: de4a 5ebd ec93 af3e 81b5 b6bc d33b 14bd
00000080: b337 b13d b3df 7b3d 7f76 e4bd 60a0 f33b
00000090: 1692 893d e1f3 b0bb 13d5 03bd c24c 90bc
000000a0: b9a8 fe3d 6598 bb3d 7103 913e e020 99bc
000000b0: f8e1 103d b83d 6e3c 5f82 493e 7e9d f6bd
000000c0: 0a9c d23d 4ec3 8f3e 5bbe e83d ae7c 993e
000000d0: 3e83 39be ef9a b83d d944 73bd 6f63 32be
000000e0: a76f d3bd 07da f8bc d1ff ab3c cd49 42be
000000f0: 44ee e0bc 89fc 023c a7a1 7e3c 6c1f 05bc
00000100: 245e 1d3e 1081 c6be a2ed 44be fabf a43e
00000110: 79bd bb3d 2c7f 333e 7bf2 2bbd 8ca4 02bf
00000120: 97b1 37bc 54e9 0e3d 1463 20be 0db8 4fbe
00000130: 661c 073b 2a73 1d3c d47b 913b ac66 4dbe
00000140: 2d53 43be cea3 f93b 5409 563e 1130 103e
00000150: 22c0 9c3e 6d5e 81bd e2fe 1dbe 4f16 1ebe
00000160: 2c1a 22bf ab5a 523e 2d30 8b3c 4141 943d
00000170: 857e 7dbc e814 2f3d 21ee d7bd ca6e 3bbd
00000180: 74b9 8e3e 7d55 90bd 0686 89be 4c25 cd3d
00000190: 85c4 ac3b dfcc 343d 8a2d 8abd 0ab6 733d
000001a0: fdf7 87bd 739a 403e 9528 e0bd a1b1 6b3d
000001b0: 1bff ff3d 3d05 9dbd d2ba 753d 9677 623e
000001c0: d4c5 0f3b 0e99 ba3e 9841 e5bd 775e d83e
000001d0: 41aa 8abe 98e0 86be 0d54 d4bd b239 933e
000001e0: fa10 133e bf9b 4a3e 6d8e 833d d815 233d
000001f0: 8c65 f5bd e53e 54be 69f7 103e fa26 22be
00000200: 2789 f5bc b4e5 5abe 0edd 8a3e 0eec a3bb
00000210: 79f0 74bd df01 8f3b 0ad3 7c3e a416 3c3d
00000220: 6f4b a23d e598 85bd 091c 9dbe abf3 1e3d
00000230: abe5 4d3e 9094 a73e 5fca d33b 57c8 013d
00000240: 7123 55bd 2927 543e cf6d 2dbe d20d 72be
00000250: 65f7 9b3e 7294 00be 090b ea3c cebf ed3d
00000260: 7718 e5bd 48d7 a73e 33ff f1bd 0ff7 49bd
00000270: a290 943c 752b 043e 7c32 5bbd 7ab4 413c
00000280: dd03 933b 36b8 ee3e 4423 cd3e 519f cbbe
00000290: be5e 943d 74dc c03d 4593 0bbe b652 54be
000002a0: 3f00 fdbd 2202 4d3d 949f 213e b1cb 0f3c
000002b0: 75b5 113e 0c80 8abe 97fe 3e3e 507d babc
000002c0: f650 3139 acee 353e 1982 4f3d 5579 9b3c
000002d0: d38c b5be b524 9a3d d900 9e3d ff50 b93e
000002e0: 67cd 76be 9d04 b1bd 973a dfbd 2cca 76bd
000002f0: 06bc ef3c 1a79 003d 391b abbc 82d3 143e
00000300: 13be 4b3e 0248 0a3d 01b3 e3bc 5a16 a23e
00000310: 448f d13d 36e0 7a3d b6b6 043d cc33 e6be
00000320: 6201 8cbb 1746 163e 0ea0 9a3d 55d8 a53c
00000330: b753 ccbd 0242 3a3e 86d2 833d a43a 8cbd
00000340: 0be4 f5bd 73be 66bf 058e acbc adde b33d
00000350: d310 8d3d 39e4 483e 9c22 173e 5e3a e8bd
00000360: 2c9c bb3c 0f7a 003e d7af ee3d 7a4c 023f
00000370: b77f 9dbb 8793 9fbc 47e7 563d 1db7 be3d
00000380: ff04 49be 3bcd 5a3d 54d0 9d3e 3284 473c
00000390: 59cf a73e 83fd 633d a7c1 b7bb 91a1 47be
000003a0: b825 27be f557 733b 87fb e93d a822 f4bd
000003b0: f5b3 bbbe f1d3 03be 8ad5 443e 5aa7 113d
000003c0: 003c 7e3e 31c5 cebd ee70 9b3d 3ef1 bd3e
000003d0: f44d da3c be6c dcbe b6dc 7d3d cae4 923d
000003e0: 24af 813e c01b 7cbd 6b89 e33c a0f8 0bbe
000003f0: 8409 653d d8fc d93d 327e 343d 45b2 4f3e

advantage_net.0.0.bias f4 [128]
0.09132595 0.09370105 0.16274391 0.033047292 -0.1159524 0.06481456 -0.045934938 -0.029319827
-0.06668727 0.1189096 -0.085349426 0.016591314 -0.015753739 -0.070583366 0.054729547 -0.042024426
0.017158538 0.011102121 0.04251997 0.13511471 0.049138214 -0.059090875 0.14327028 -0.081502534
-0.050939497 -0.097196 0.104036584 -0.123673074 -0.16286549 -0.066328034 0.107657984 -0.092272624
-0.012455932 -0.10253595 -0.014932809 0.15015784 0.006889776 -0.06199817 0.06814192 -0.13515462
-0.12808353 0.15948056 -0.0209529 0.037401132 -0.055907916 -0.03092014 0.07858538 -0.07564896
0.12372067 0.0072838482 -0.10947467 0.0062392247 -0.100475065 -0.03303834 -0.063639976 -0.11973238
0.09969027 -0.040849406 0.048277143 0.1396639 0.06348015 -0.060081262 0.046538346 -0.060693365
0.036023356 -0.09416482 -0.12648195 0.08951157 -0.037298035 0.07593218 -0.12296112 -0.023032622
-0.115293354 0.07463394 0.023047121 0.05649512 0.061710093 -0.080262735 -0.13220048 0.027147355
-0.019642308 -0.099989496 -0.1305175 0.088153794 0.06436791 -0.052229922 -0.086026736 0.12434861
-0.09429182 0.075253 -0.071757875 0.033447538 -0.15965125 0.07930012 0.008661085 0.11246795
0.035015807 -0.102084465 0.121942386 0.14326233 -0.097103104 -0.047805663 0.03773287 -0.07994268
-0.115127765 0.08703339 0.0022605998 0.11139136 -0.113688976 -0.0642534 -0.05881441 -0.025476431
-0.08232722 -0.13002065 0.09661746 0.15550658 0.118193835 0.040156625 -0.008280484 -0.14189005
0.14246498 -0.05541397 0.15613636 0.018789342 0.038171314 0.14330214 0.099007115 0.12843925
00000000: 1a09 bb3d 56e6 bf3d 57a6 263e 995c 073d
00000010: 7478 edbd 7fbd 843d 4626 3cbd 2230 f0bc
00000020: 5693 88bd e086 f33d aecb aebd 82ea 873c
00000030: fc0d 81bc 038e 90bd 172c 603d ce21 2cbd
00000040: 1090 8c3c ace5 353c 6c29 2e3d 835b 0a3e
00000050: 2745 493d 4609 72bd 72b5 123e cdea a6bd
00000060: efa5 50bd b20e c7bd 2211 d53d 4f48 fdbd
00000070: 36c6 26be fed6 87bd ca7b dc3d 6ef9 bcbd
00000080: f713 4cbc 5efe d1bd bea8 74bc fac2 193e
00000090: a1c3 e13b cbf1 7dbd fe8d 8b3d f965 0abe
000000a0: 5428 03be df4e 233e 6ba5 abbc ee31 193d
000000b0: b3ff 64bd 3c4c fdbc 5ff1 a03d d8ed 9abd
000000c0: 4361 fd3d 59ad ee3b 4134 e0bd 6972 cc3b
000000d0: dfc5 cdbd 3653 07bd ad55 82bd 4036 f5bd
000000e0: 6a2a cc3d b551 27bd 41be 453d 0e04 0f3e
000000f0: e201 823d c517 76bd fe9e 3e3d 9b99 78bd
00000100: 3a8d 133d 7cd9 c0bd 7c84 01be d851 b73d
00000110: d3c5 18bd 5582 9b3d 0ad3 fbbd e9ae bcbc
00000120: ec1e ecbd aed9 983d 51cd bc3c 6d67 673d
00000130: b9c3 7c3d ca60 a4bd 905f 07be 2164 de3c
00000140: e8e8 a0bc 4bc7 ccbd 61a6 05be fa89 b43d
00000150: 53d3 833d 0bef 55bd c92e b0bd 7caa fe3d
00000160: 121c c1bd 3f1e 9a3d cbf5 92bd 4900 093d
00000170: 9e7b 23be 1a68 a23d 39e7 0d3c 9955 e63d
00000180: bc6c 0f3d a911 d1bd eebc f93d 5cb3 123e
00000190: fedd c6bd dfcf 43bd c88d 1a3d fdb8 a3bd
000001a0: 1bc8 ebbd 903e b23d 9226 143b 2721 e43d
000001b0: c4d5 e8bd 4997 83bd 61e7 70bd f3b3 d0bc
000001c0: 2c9b a8bd 2224 05be 60df c53d 1e3d 1f3e
000001d0: 9c0f f23d 467b 243d deaa 07bc a04b 11be
000001e0: 57e2 113e c2f9 62bd 36e2 1f3e 1bec 993c
000001f0: 8659 1c3d ccbd 123e 3ec4 ca3d 9485 033e

advantage_net.0.1.weight f4 [128]
0.51660836 0.6142105 0.31354672 0.76080734 0.7650837 0.5311899 0.6331281 0.6728668
0.32672316 0.38620982 0.4286125 0.81874955 0.6399132 0.11496054 0.33674645 0.32721075
0.49952924 0.26281193 0.7765011 0.37434745 0.51202995 0.7899994 0.3569185 0.20092589
0.2090302 0.49044776 0.25912735 0.1095162 0.87409395 0.3147404 0.0010674894 0.47878703
0.31391373 0.5729608 0.5810933 0.63397616 0.21952644 0.5228748 0.17387909 0.13816684
0.39596233 0.4474402 0.19357519 0.5244776 0.25919574 0.33256182 0.4012452 0.21927837
0.6996548 0.677481 0.38924846 0.44758612 0.17131296 0.3007292 0.4027238 0.6599733
0.41038436 0.68753386 0.02547858 0.6117242 0.14681037 0.7249255 0.230572 0.4546882
0.66669655 0.23327282 0.3211955 0.5548146 0.29597902 0.5781421 0.6870887 0.3394488
0.36196813 1.0800948 0.4460341 0.51280427 0.38136706 0.44237003 0.44551563 0.20019676
0.16005509 0.7583431 0.6321968 0.21365844 0.6136162 0.4603009 0.69439477 0.7613503
0.5662069 0.69470257 0.52244854 0.5224232 0.048133817 0.7664839 0.6386903 0.4538613
0.38235682 0.397435 0.28849107 0.6022582 0.6584642 0.18925436 0.23323862 0.29465204
-0.00014925496 0.29896897 0.51650894 0.2755007 0.33078784 0.44140896 0.3294267 0.2754879
0.40554586 0.43555793 0.15520398 0.43111885 0.31867662 0.7792264 0.43917814 0.19533485
0.27667093 0.484539 0.6510255 0.36836216 0.6549253 0.7694783 0.42716506 0.48999712
00000000: 7240 043f e63c 1d3f 3289 a03e 45c4 423f
00000010: 86dc 433f 10fc 073f af14 223f 0041 2c3f
00000020: 4248 a73e 4bbd c53e 1973 db3e 9299 513f
00000030: 5ad1 233f 6e70 eb3d 086a ac3e 2b88 a73e
00000040: 4cc2 ff3e 498f 863e c7c8 463f 78aa bf3e
00000050: 6514 033f 673d 4a3f 06be b63e 84bf 4d3e
00000060: 030c 563e f81b fb3e 57ac 843e 084a e03d
00000070: 9fc4 5f3f a725 a13e 00eb 8b3a 9323 f53e
00000080: 4db9 a03e 8fad 123f 88c2 143f 434c 223f
00000090: 8acb 603e 1fdb 053f 5c0d 323e 9c7b 0d3e
000000a0: 93bb ca3e e216 e53e 9338 463e 2a44 063f
000000b0: 4eb5 843e 8b45 aa3e 0370 cd3e 828a 603e
000000c0: 941c 333f 656f 2d3f 934b c73e 022a e53e
000000d0: aa6c 2f3e 2df9 993e d031 ce3e 03f4 283f
000000e0: e61d d23e 3802 303f 74b8 d03c f599 1c3f
000000f0: 7555 163e b894 393f 111b 6c3e e4cc e83e
00000100: a0ac 2a3f 12df 6e3e bd73 a43e 5408 0e3f
00000110: 908a 973e 1f01 143f 0ce5 2f3f 3ccc ad3e
00000120: e353 b93e 8c40 8a3f 955e e43e 2447 033f
00000130: 8b42 c33e 537e e23e a01a e43e 6100 4d3e
00000140: 7be5 233e c622 423f a6d7 213f 47c9 5a3e
00000150: f415 1d3f 8fac eb3e dbc3 313f dae7 423f
00000160: eff2 103f 07d8 313f 30bf 053f 87bd 053f
00000170: f727 453d 4a38 443f 3581 233f 8260 e83e
00000180: 46c4 c33e 9a7c cb3e 1ab5 933e 982d 1a3f
00000190: 1c91 283f e5cb 413e 1bd6 6e3e a2dc 963e
000001a0: 5381 1cb9 7612 993e ee39 043f 6e0e 8d3e
000001b0: 065d a93e 5b00 e23e 9eaa a83e c00c 8d3e
000001c0: b5a3 cf3e 7301 df3e cbed 1e3e 9cbb dc3e
000001d0: 9529 a33e 627b 473f f5db e03e dc05 483e
000001e0: d0a7 8d3e 7f15 f83e 9ba9 263f f799 bc3e
000001f0: 2fa9 273f 88fc 443f 61b5 da3e e7e0 fa3e

advantage_net.0.1.bias f4 [128]
-0.1542719 -0.004717533 0.034355525 0.07705036 -0.15535542 -0.25389075 -0.32913205 -0.47026217
-0.10112465 0.22685783 -0.30536562 -0.3132209 -0.37386194 -0.117709816 -0.07446769 0.014862082
-0.023747832 -0.18528046 -0.31739104 0.16199757 -0.07397739 -0.22241876 -0.06926286 -0.18573646
-0.08057326 -0.16435955 -0.053974964 -0.0825722 -0.6557955 -0.2367038 0.042925887 -0.28335854
-0.13148999 -0.2719099 0.10966384 -0.57282716 0.08480423 0.008564638 -0.080275126 0.016094817
-0.26989418 -0.06406785 -0.061907217 -0.08892397 -0.10883226 0.020111091 0.02512759 -0.0985573
0.1403833 -0.17797887 -0.0113372 -0.07286157 0.063099384 0.07732681 -0.03434955 -0.2304197
-0.17661695 -0.50073284 0.07662404 -0.10039519 -0.12168157 -0.0007779504 0.030540181 -0.1647182
-0.4152048 -0.047649976 -0.10512707 -0.22979277 -0.02922216 -0.075361006 0.024943508 0.024333255
-0.018940184 -0.30214095 -0.10139871 -0.16537943 -0.078247026 -0.27107084 -0.2535268 0.023953922
0.03929576 0.07518817 0.03903589 0.011050509 -0.005775394 -0.06215171 0.01312801 -0.16165589
-0.13303268 -0.00815589 0.074487954 -0.18740125 0.18283495 -0.16013214 -0.1664474 0.009648073
0.009356333 -0.29869294 -0.080557734 0.05227131 -0.1654854 -0.027090777 -0.00038312573 0.18464813
-0.005885238 -0.073385775 -0.268953 0.0082979 -0.017113045 -0.049717028 0.10798822 -0.06672226
0.0678098 -0.38151285 0.121608086 -0.18864153 -0.16464153 -0.1469123 -0.042047907 -0.17870401
-0.18965627 -0.045979396 -0.10529424 -0.23609951 -0.14671497 -0.033685774 -0.08515424 -0.008433406
00000000: 74f9 1dbe 8995 9abb 61b8 0c3d 94cc 9d3d
00000010: 7e15 1fbe f8fd 81be ff83 a8be 34c6 f0be
00000020: 711a cfbd 6b4d 683e e258 9cbe 7d5e a0be
00000030: d56a bfbe d811 f1bd 8482 98bd 1780 733c
00000040: d08a c2bc 29ba 3dbe 1481 a2be b1e2 253e
00000050: 7581 97bd bec1 63be b0d9 8dbd b331 3ebe
00000060: 9803 a5bd df4d 28be da14 5dbd 9d1b a9bd
00000070: 37e2 27bf 7b62 72be 0ed3 2f3d 5f14 91be
00000080: 50a5 06be c637 8bbe 6f97 e03d cda4 12bf
00000090: d7ad ad3d b252 0c3c 4967 a4bd 47d9 833c
000000a0: 922f 8abe 0136 83bd 6c92 7dbd c51d b6bd
000000b0: 73e3 debd 04c0 a43c 60d8 cd3c 69d8 c9bd
000000c0: a4c0 0f3e 1840 36be aabf 39bc 7238 95bd
000000d0: 403a 813d 855d 9e3d 1db2 0cbd 24f3 6bbe
000000e0: 13db 34be 0730 00bf 11ed 9c3d fe9b cdbd
000000f0: 3034 f9bd 5eef 4bba 672f fa3c e3ab 28be
00000100: b995 d4be 9f2c 43bd dc4c d7bd cc4e 6bbe
00000110: 5063 efbc df56 9abd 5456 cc3c 8956 c73c
00000120: 7228 9bbc 38b2 9abe 20aa cfbd 3a59 29be
00000130: fa3f a0bd ccc9 8abe 44ce 81be 043b c43c
00000140: 97f4 203d 41fc 993d 19e4 1f3d 320d 353c
00000150: 843f bdbb cb92 7ebd dd16 573c 1f89 25be
00000160: b839 08be 48a0 05bc 248d 983d 1de6 3fbe
00000170: 1639 3b3e aef9 23be 3071 2abe f412 1e3c
00000180: 4e4b 193c 48ee 98be 74fb a4bd 711a 563d
00000190: 0175 29be 7aed ddbc 44de c8b9 6614 3d3e
000001a0: f4d8 c0bb 484b 96bd 35b4 89be eaf3 073c
000001b0: a830 8cbc 15a4 4bbd ee28 dd3d aea5 88bd
000001c0: dddf 8a3d a755 c3be a90d f93d 3f2b 41be
000001d0: ca97 28be 2e70 16be 6d3a 2cbd 2ffe 36be
000001e0: 4135 42be e454 3cbd 82a4 d7bd 12c4 71be
000001f0: 733c 16be 18fa 09bd 5965 aebd 452c 0abc
